data.pth (torch, 20055 bytes, 6 tensors)

l1.weight f4 [16, 158]
0	0x3ef99261	0.4874449
1	0x3da78579	0.08179755
2	0xbdb0c8cb	-0.08632048
3	0xbf5a6de2	-0.8532392
4	0x3e11f82b	0.14254825
5	0xbf09571a	-0.5364853
6	0xbf5adf29	-0.85496765
7	0xbeaed461	-0.34146407
8	0x3fb2d255	1.3970438
9	0x3f9cf577	1.226241
10	0x3f010a35	0.504062
11	0xbf5a4424	-0.85260224
12	0x3f6d011d	0.92579824
13	0x3fbc47a0	1.4709358
14	0xbe6e0f77	-0.23248087
15	0x3f881ae0	1.0633202
16	0x3eeffcef	0.4687266
17	0xbf565d29	-0.837359
18	0xbf5a13eb	-0.8518664
19	0xbe143071	-0.14471604
20	0x3f4e239d	0.8052309
21	0x3ffbfb14	1.9685998
22	0xbeebb201	-0.46034244
23	0xbda7fdb3	-0.08202686
24	0xbf5b9283	-0.85770434
25	0xbf2d4539	-0.6768375
26	0x3f224525	0.63386756
27	0xbf5a1474	-0.8518746
28	0x3f6f3299	0.9343658
29	0x3eec11cc	0.46107328
30	0x3f105a8e	0.56388175
31	0xbf5a08c4	-0.85169625
32	0xbf56fdc1	-0.8398095
33	0xbf56c834	-0.83899236
34	0xbf5a06ad	-0.85166436
35	0x3e8dbc31	0.2768264
36	0x3ffee20e	1.9912736
37	0xbf12b6e4	-0.5731032
38	0x3f9bfeb4	1.2187104
39	0x3fbe512c	1.4868522
40	0x3cea49af	0.028599588
41	0x3fc33dae	1.5253198
42	0xbf01537f	-0.5051803
43	0xbe215625	-0.15755518
44	0xbe734ab3	-0.23758964
45	0xbf1f20c5	-0.6215938
46	0xbf8c09bf	-1.0940474
47	0xbf72cba4	-0.9484198
48	0xbf1a77d3	-0.6033909
49	0xbe8a9fa4	-0.2707492
50	0xbf1f9822	-0.6234151
51	0xbf0d1438	-0.55108976
52	0xbed0401b	-0.4067391
53	0xbed3a501	-0.41336825
54	0x3fc19675	1.5124041
55	0x3e28bf4a	0.16479221
56	0x3d77455e	0.060368888
57	0x3fa05f50	1.2529087
58	0x3fd15cbf	1.6356429
59	0xbf1abf6e	-0.6044835
60	0xbf0d4338	-0.5518069
61	0x3f98008f	1.187517
62	0xbf1f6931	-0.62269884
63	0xbf37ef66	-0.7184967
64	0xbf1e018d	-0.61721116
65	0x3f0805ae	0.53133667
66	0x3f949b2b	1.1609854
67	0xbe06774c	-0.13131446
68	0xbec2e0ec	-0.38062227
69	0xbf756fbf	-0.95873636
70	0x3e4efac9	0.20212854
71	0x3ee7fb89	0.45309094
72	0x3d9f76f3	0.0778636
73	0x3f0f16c8	0.55894136
74	0xbe766097	-0.24060284
75	0x3f38ddd6	0.72213495
76	0x3f6f5cde	0.9350108
77	0xbe71eb5e	-0.23624942
78	0x3f7e4302	0.99320996
79	0x3eb854a0	0.36002064
80	0x3f9f915d	1.2466236
81	0xbef260fc	-0.47339618
82	0x3d43ca81	0.047800545
83	0x3ef203b8	0.47268462
84	0xbe04f753	-0.12984972
85	0x3d8f47a2	0.06996085
86	0x3f7a0fa7	0.97680134
87	0xbe19a311	-0.15003611
88	0xbe85866c	-0.26079118
89	0x3ee7e35b	0.45290646
90	0xbe85b6ca	-0.2611602
91	0xbe85d70e	-0.26140636
92	0x3f18c22d	0.5967129
93	0x3f13ff12	0.5781108
94	0xbe5d4e66	-0.21611938
95	0x3d8e234a	0.069403246
96	0x3dad1388	0.08450991
97	0x3e013fa1	0.12621929
98	0x3e2b9b28	0.16758406
99	0x3eec16c9	0.46111134
100	0x3d80f933	0.06297531
101	0x3f1c471f	0.6104602
102	0xbef0c1f7	-0.47022983
103	0x3d54ce26	0.05195441
104	0x3f02f4eb	0.51154965
105	0x3d8c56d7	0.06852501
106	0x3e686a60	0.22696829
107	0xbdce679f	-0.10078358
108	0x3f6969a9	0.9117685
109	0x3e599fb2	0.21252325
110	0x3f396515	0.72419864
111	0x3e1087b1	0.14114262
112	0xbf9aebb7	-1.2103184
113	0x3f4b5380	0.79424286
114	0xbee2817a	-0.44239408
115	0x3f3fcf1f	0.74925417
116	0xbee46522	-0.44608408
117	0x3f6971ba	0.9118916
118	0x3ddf355b	0.108988486
119	0xbeb4772c	-0.3524717
120	0xbdae1a48	-0.085011065
121	0x3f315abe	0.69279087
122	0xbdd4e489	-0.10395152
123	0x3f1c17e5	0.6097396
124	0xbd52cafe	-0.05146312
125	0xbf480a8e	-0.78141105
126	0xbf0a162f	-0.539401
127	0x3ec99fcd	0.3937973
128	0x3f1a94b0	0.6038313
129	0x3f29bdbb	0.6630513
130	0xbeddaa38	-0.4329393
131	0x3ea2d587	0.31803533
132	0x3e09d624	0.13460594
133	0xbedc025f	-0.4297056
134	0xbef7e8f8	-0.4841993
135	0xbf1f1597	-0.6214232
136	0xbf00cef4	-0.50315785
137	0x3f0c0faa	0.547114
138	0xbf1ae2bf	-0.6050224
139	0x3c38914c	0.01126511
140	0xbf7a098c	-0.9767082
141	0x3e057a69	0.13034977
142	0xbe82f7ce	-0.25579685
143	0x3f9346ff	1.1506041
144	0x3e0c2129	0.13684525
145	0xbf30b221	-0.69021803
146	0x3f9212be	1.141197
147	0x3eeef785	0.46673217
148	0x3e050cf1	0.12993218
149	0xbe29879c	-0.16555637
150	0x3e91b92d	0.2846159
151	0x3f9eacae	1.2396448
152	0x3cbee5c2	0.023302916
153	0x3f8535ae	1.0407007
154	0xbd271a24	-0.040796414
155	0x3e1abe45	0.15111645
156	0x3db04ff2	0.08608998
157	0x3e524e05	0.20537575
158	0x3d324765	0.04352512
159	0x3f025719	0.5091415
160	0x3f44d8b6	0.76893175
161	0xbe0c63f3	-0.13710003
162	0x3ec25a47	0.379595
163	0x3e922e9a	0.2855118
164	0x3f532ef5	0.82493526
165	0xbe0ec2e4	-0.13941532
166	0xbf6b03b0	-0.918025
167	0x3ee70475	0.45120588
168	0x3f2894dd	0.6585215
169	0x3f356ed8	0.7087226
170	0x3ce8a173	0.028397297
171	0x3f60b7e1	0.87780577
172	0x3f70b738	0.9402957
173	0x3f0547c2	0.5206262
174	0x3f46628a	0.7749411
175	0x3f561b7e	0.836357
176	0xbf17c40c	-0.5928352
177	0x3fabc96c	1.3420844
178	0x3f783514	0.9695599
179	0x3f84c49b	1.0372499
180	0xbf1adee2	-0.6049634
181	0xbfa075a6	-1.2535903
182	0xbf88e909	-1.0696117
183	0xbedded5d	-0.43345156
184	0x3f8d67cb	1.10473
185	0x3f777d5e	0.9667567
186	0xbf037f0d	-0.5136574
187	0xbf34dfa1	-0.7065373
188	0x3ee76ec8	0.45201707
189	0x3f783bb8	0.96966124
190	0xbf9bf593	-1.2184318
191	0xbf4b861d	-0.79501516
192	0xbf9a0198	-1.2031736
193	0xbf7b2555	-0.9810384
194	0x3f137ac5	0.57609206
195	0xbf6b638e	-0.91948783
196	0x3dd7dc6a	0.105400875
197	0xbf3e5167	-0.7434296
198	0x3ea4a63e	0.32158083
199	0x3fb7a776	1.434798
200	0x3fb17b7c	1.386581
201	0x3e843bea	0.2582696
202	0x3e9a5257	0.30140945
203	0xbf214a0a	-0.630036
204	0xbf58c2f4	-0.84672475
205	0x3f28cba6	0.6593574
206	0xbf203451	-0.6257983
207	0xbe6b748b	-0.22993676
208	0x3df86c8a	0.12130077
209	0xbee2962f	-0.44255206
210	0xbe4389ae	-0.1909549
211	0x3f70de34	0.94089055
212	0x3ed82fc9	0.42223957
213	0x3ebefd44	0.373026
214	0xbeaa0aae	-0.33211273
215	0xbf576f43	-0.84154147
216	0x3f9a31cb	1.2046446
217	0x3eb5d9ab	0.3551763
218	0x3f4183ae	0.7559155
219	0x3ea3f83d	0.32025328
220	0x3f5151a4	0.817652
221	0x3f90b3f9	1.1304923
222	0xbe8881f4	-0.26661646
223	0xbd4b2c43	-0.04960276
224	0xbf740c61	-0.9533139
225	0x3eb92d31	0.3616729
226	0xbf814c0e	-1.0101335
227	0xbe96fb08	-0.29488397
228	0x3e5b5a87	0.21421252
229	0xbec2dc73	-0.38058814
230	0x3ed9a9a0	0.42512226
231	0x3eaa83f2	0.3330379
232	0xbe79a91d	-0.24380918
233	0xbe0b99f6	-0.1363295
234	0x3df7fcd5	0.12108771
235	0xbeddf5a1	-0.43351462
236	0x3fa54e5e	1.2914541
237	0xbd7127db	-0.0588759
238	0x3e26ecf2	0.16301325
239	0xbe96cdb7	-0.29453823
240	0x3efbe175	0.49195448
241	0x3edc8e4f	0.43077323
242	0x3edb4e45	0.42833152
243	0xbea7c80e	-0.32769817
244	0xbe7918aa	-0.24325815
245	0x3fa67528	1.3004503
246	0x3f4e8b01	0.80680853
247	0x3c6c36fb	0.014417405
248	0x3f5174f1	0.81819063
249	0x3f42f13d	0.7614935
250	0xbe015306	-0.12629327
251	0xbd4190ba	-0.047257163
252	0x3ee36585	0.4441339
253	0x3ba6fa0e	0.005095727
254	0x3ee20410	0.44143724
255	0x3e262b70	0.16227508

l1.bias f4 [16]
0	0x3e7e19a4	0.24814469
1	0x3e8ed4a0	0.27896595
2	0x3ed2b8d1	0.4115663
3	0x3f05b590	0.5223017
4	0x3e835cf4	0.25656855
5	0x3f0b41cd	0.5439728
6	0x3f653d0e	0.8954629
7	0x3ea5a560	0.32352734
8	0x3f135d62	0.57564366
9	0x3e5e5988	0.21713841
10	0x3eb44649	0.35209873
11	0x3ee57a07	0.44819662
12	0x3ecf910c	0.4054035
13	0x3ef41e08	0.47679162
14	0x3e8d37b6	0.27581567
15	0x3eedd857	0.46454117

l2.weight f4 [16, 16]
0	0x3dfcfc1a	0.12352772
1	0xbfb87205	-1.4409796
2	0x3f52b9f5	0.82315
3	0x3f370cee	0.71504104
4	0xbee42f39	-0.44567278
5	0x3f9e296b	1.235639
6	0x3f2353b2	0.63799584
7	0xbf10c78f	-0.565545
8	0x3fb6c1c8	1.4277887
9	0xbf83c6fa	-1.0295098
10	0x3f673d40	0.90327835
11	0x3f813900	1.009552
12	0x3d7498cd	0.059716035
13	0xbf03c054	-0.51465344
14	0xbf59fe4f	-0.8515367
15	0x3ede9100	0.4347
16	0xbf791ef9	-0.97312886
17	0xbedc2b19	-0.4300163
18	0x3f85228a	1.0401165
19	0xbe8de2b8	-0.27712035
20	0x3f6e3cd7	0.93061584
21	0x3ee76206	0.45191973
22	0x3f53cf41	0.8273812
23	0x3edbac0e	0.42904705
24	0x3ebc1664	0.36735833
25	0xbdd780bd	-0.10522602
26	0xbfa24ea7	-1.2680253
27	0xbed844a7	-0.42239878
28	0x3fa2efea	1.2729466
29	0x3f248a01	0.6427308
30	0xbfe0c004	-1.7558599
31	0x3f4a91d8	0.7912879
32	0x3ed5641d	0.41677943
33	0x3cf600b4	0.030029632
34	0x3cf3c028	0.029754713
35	0x3f87f432	1.0621397
36	0xbf2abb1a	-0.66691744
37	0x3f9bfd26	1.218663
38	0xbebc3ac3	-0.36763582
39	0x3ef76da5	0.4832584
40	0x3e84b2bf	0.25917622
41	0xbf4245ef	-0.7588796
42	0x3fb909bc	1.4456096
43	0x3f9857f5	1.1901842
44	0x3ed8d5eb	0.42350706
45	0xbf18e966	-0.5973114
46	0x40025e23	2.0369956
47	0x3d34bc7a	0.044125058
48	0x3fb89670	1.442091
49	0x3f409f59	0.75243145
50	0x3f7f8343	0.99809664
51	0xbe2996be	-0.1656141
52	0x3f6dbdf1	0.9286795
53	0xbe119022	-0.14215139
54	0x3e63c6f3	0.22243862
55	0x3f6e2471	0.93024355
56	0x3caa4cb7	0.020788534
57	0x3fa817b7	1.3132237
58	0x3e8a0e8b	0.2696422
59	0x3ce559d3	0.027996933
60	0xbe0769bf	-0.13223933
61	0xbfcd7930	-1.6052608
62	0xbf04bb79	-0.5184856
63	0x3f76ec51	0.9645434
64	0x3df622b0	0.12018335
65	0xbc92f1ac	-0.017937504
66	0xbe5c0209	-0.21485151
67	0xbe713107	-0.23553859
68	0xbe4122c5	-0.1886092
69	0x3cb7f4a0	0.022455513
70	0x3e36f45e	0.17866656
71	0x3ce1a791	0.027545722
72	0x3d713f7c	0.058898434
73	0xbc8dc74e	-0.01730695
74	0xbdffec65	-0.124962606
75	0x3d34b2b4	0.044115737
76	0xbe692c5e	-0.22770831
77	0xbe1e8c6f	-0.15483259
78	0xbe8cc729	-0.27495697
79	0xbe57f2f3	-0.21088772
80	0xbf834a09	-1.0256969
81	0x3f8bfa07	1.0935677
82	0xbf149839	-0.58044773
83	0xbed5196d	-0.4162096
84	0x3f4e11f0	0.8049612
85	0xbf28bf0b	-0.6591651
86	0x3f5b402d	0.856448
87	0x3f7dafca	0.9909636
88	0x3f9a780e	1.2067888
89	0x3f27fed1	0.65623194
90	0x3e8e53ac	0.27798212
91	0x3f560571	0.8360205
92	0xbf3a07ad	-0.7266796
93	0xbd9ed4ff	-0.077554695
94	0xbecf4664	-0.4048339
95	0x3f692c2b	0.9108302
96	0xbf999ad7	-1.2000378
97	0x3efc18c6	0.4923765
98	0x3f0aa37e	0.5415572
99	0xbef3403a	-0.47509938
100	0x3e9e06b4	0.3086449
101	0xbef178a8	-0.47162366
102	0x3f2045b0	0.62606335
103	0xbec62c24	-0.38705552
104	0x3fbf5a28	1.4949389
105	0x3fba4079	1.4550925
106	0xbebc605d	-0.3679227
107	0xbf41dfd6	-0.7573217
108	0xbf159554	-0.5843098
109	0x3fc49876	1.5359027
110	0x3f96f414	1.1793237
111	0x3e32462a	0.17409578
112	0x3fb88d46	1.4418113
113	0x3fb98f22	1.4496806
114	0xbfacb18a	-1.3491681
115	0x3e94b713	0.29045925
116	0x3f08dd77	0.5346293
117	0x3f8dd747	1.1081322
118	0x3e7bca16	0.24588808
119	0xbf1b5062	-0.6066953
120	0x3ec0621a	0.37574846
121	0x3f2105e1	0.62899595
122	0x3fb0997a	1.3796837
123	0xbf6632aa	-0.8992106
124	0x3f9d826d	1.2305428
125	0xbee3f91f	-0.44526002
126	0x3dbadb5c	0.09123871
127	0x3e3e4202	0.18579867
128	0x3f7b0b84	0.98064446
129	0x3cf12fc8	0.02944173
130	0xbf79ec80	-0.97626495
131	0x3f84f653	1.0387672
132	0x3f17b2fa	0.5925747
133	0xbea87205	-0.3289949
134	0x3f38bb8c	0.72161174
135	0x3e8e248d	0.2776226
136	0xbfe76de8	-1.8080416
137	0x3dacc8ae	0.08436714
138	0x3ef6f20d	0.48231545
139	0xbe2455bb	-0.16048329
140	0xbcb8efe1	-0.02257532
141	0x3f8a0451	1.0782567
142	0xbf47acff	-0.77998346
143	0x3e138220	0.14405107
144	0x3f32ef0c	0.69896007
145	0xbf3dc2ad	-0.74125177
146	0x3feaf1fe	1.83551
147	0x3f7d28c3	0.9889032
148	0x3cf3e5e1	0.0297727
149	0x3ebf7504	0.37393963
150	0x3dd6ddee	0.104915485
151	0x3f131dbc	0.57467246
152	0xbf2d7a0c	-0.67764354
153	0x3e0dd951	0.13852431
154	0xbf15391c	-0.58290267
155	0x3f4c18ab	0.7972514
156	0xbcc3c8b8	-0.023899421
157	0x3e8b4648	0.27202058
158	0x3df570d3	0.1198441
159	0xbda86e20	-0.0822413
160	0x3f7da03b	0.9907262
161	0xbe4b9b7a	-0.19883528
162	0x3f2c21cf	0.6723909
163	0x3eae3a91	0.34029058
164	0x3f079b10	0.5297098
165	0x3f6c0fcd	0.9221161
166	0x3d25e83b	0.040504675
167	0xbee31bd8	-0.4435718
168	0x3f057a5a	0.5213982
169	0x3ea16339	0.31521013
170	0x3cb362b9	0.02189766
171	0xbf3156e6	-0.6927322
172	0xbe4df8ed	-0.20114489
173	0xbe2a0f7d	-0.16607471
174	0x3e4e963a	0.20174494
175	0xbe2b1100	-0.16705704
176	0x3c2fef01	0.010738135
177	0x3e9e41ce	0.3090958
178	0xbd13b500	-0.036061287
179	0xbd73bd6f	-0.05950683
180	0xbcfd4104	-0.03091479
181	0xbdb13aed	-0.08653817
182	0x3d058ba6	0.032603882
183	0xbe25b0ca	-0.16180721
184	0xbe13d74a	-0.14437595
185	0x3e88024f	0.2656426
186	0xbe47ab26	-0.19498882
187	0xbe428546	-0.18996152
188	0x3e70d993	0.23520498
189	0xbdcf3f4f	-0.10119497
190	0xbe275588	-0.16341221
191	0xbe3cb0a8	-0.18426764
192	0x3dcded43	0.1005502
193	0x3f034e16	0.51291025
194	0x3f1e8227	0.61917347
195	0x3e518be4	0.2046352
196	0x3e9c2cdc	0.30502975
197	0x3f0a9b00	0.5414276
198	0x3db99701	0.09062005
199	0x3eb5670f	0.3543019
200	0xbfa3b17f	-1.2788543
201	0x3f338441	0.7012368
202	0xbeb7990c	-0.35858953
203	0xbef1a944	-0.47199452
204	0x3f9b3720	1.2126198
205	0x3f17cd0e	0.59297264
206	0x3e5f3d81	0.21800806
207	0xbea5b637	-0.3236558
208	0xbfba110f	-1.4536456
209	0x3cb7f68c	0.02245643
210	0xbddc2434	-0.10749093
211	0x3fbb2cf8	1.4623098
212	0xbe94c97d	-0.29059973
213	0x3f55874d	0.8340958
214	0x3f4b50a4	0.7941992
215	0xbf2d9117	-0.67799515
216	0xbe6111c5	-0.21979435
217	0xbec62d01	-0.3870621
218	0x3decdb01	0.11565209
219	0x3f4775a3	0.77913874
220	0x3fa7b2f8	1.3101492
221	0x3fdfbead	1.7480065
222	0xbe73bc85	-0.23802383
223	0xbee51769	-0.44744423
224	0xbe8c8917	-0.2744834
225	0x3ef24359	0.47317007
226	0x3eb77c21	0.3583689
227	0x3ebabc63	0.36471853
228	0xbf2f11c5	-0.6838649
229	0x3fb13da5	1.3846937
230	0x3e2a0568	0.16603625
231	0xbe492ed1	-0.19646765
232	0x3f080616	0.53134286
233	0xbf0cca45	-0.5499614
234	0x3e0a34b3	0.13496666
235	0x3e097664	0.13424069
236	0x3fea9883	1.8327793
237	0x3f1b14e3	0.60578746
238	0x3f3c3d46	0.73530996
239	0xbf3ea2ac	-0.7446697
240	0x3ec4040d	0.3828434
241	0x3f4389ff	0.7638244
242	0xbf1b7327	-0.60722584
243	0x3dbdd4ff	0.092691414
244	0x3e32e3a4	0.1746965
245	0xbf65ae2d	-0.89718896
246	0x3eb36fe7	0.35046312
247	0x3e8fea78	0.28108573
248	0x3d7ffe0c	0.062498137
249	0x3f0a9d9a	0.5414673
250	0xbeabd061	-0.33557418
251	0x3e6b17d6	0.22958311
252	0xbe8b718a	-0.2723506
253	0x3f48e074	0.7846749
254	0x3f826e9b	1.0190004
255	0xbc033968	-0.008009292

l2.bias f4 [16]
0	0x3ef11bc6	0.47091502
1	0x3ee5ca0b	0.4488071
2	0x3ec8d90e	0.392281
3	0x3e27a457	0.16371284
4	0xbe65bf20	-0.2243619
5	0x3e9b5644	0.30339253
6	0x3ed2c5de	0.41166586
7	0x3e6e5d4c	0.23277777
8	0x3e429c88	0.19005024
9	0xbbb792f7	-0.0056022364
10	0xbdb3329b	-0.087498866
11	0xbe2344a5	-0.15944155
12	0xbca31e1d	-0.01991182
13	0x3ec4d035	0.384401
14	0x3e5ec61d	0.21755262
15	0xbc936813	-0.017993962

l3.weight f4 [47, 16]
0	0xbebfc740	-0.37456703
1	0x3c3939d2	0.011305289
2	0xbf571b09	-0.8402563
3	0x3d65169f	0.055929776
4	0x3e083208	0.13300335
5	0x3ded0b32	0.11574401
6	0x3e9286d4	0.2861849
7	0x3ef5ca32	0.48005825
8	0xbe0440ac	-0.12915295
9	0xc0cfaca4	-6.4898243
10	0x3df592c4	0.11990884
11	0x3ea1cb56	0.31600446
12	0xbf07d7a0	-0.5306339
13	0xbec037a5	-0.37542453
14	0xbe625715	-0.22103532
15	0xbe0a2679	-0.13491239
16	0x3e50796c	0.20358819
17	0xbe701129	-0.23444046
18	0xbeb846e6	-0.3599159
19	0xbf36b9d1	-0.71377283
20	0x3cc04240	0.02346909
21	0x3ce02a03	0.027363783
22	0x3ebae58b	0.36503252
23	0xbf8e8e7a	-1.113723
24	0x3e2f98ee	0.17148182
25	0xbe2e7ed4	-0.17040569
26	0xc08e522f	-4.447532
27	0xbe46e865	-0.19424589
28	0xc04cf26d	-3.2022965
29	0x3e909cdf	0.28244683
30	0x3e89bee0	0.2690344
31	0x3eb3179c	0.3497895
32	0xbf479fce	-0.7797822
33	0xbe093548	-0.13399231
34	0xbe859ef3	-0.2609783
35	0x3c7ae11b	0.015312458
36	0xbe049896	-0.12948832
37	0xbea20943	-0.3164769
38	0x3e7c692b	0.24649493
39	0xbf20c083	-0.6279375
40	0xbc56b9b6	-0.0131058
41	0x3d03dbed	0.03219216
42	0xbe292569	-0.16518177
43	0xbd9476be	-0.07249211
44	0xbd451b2d	-0.04812162
45	0x3d75248c	0.059849307
46	0x3e15fe7c	0.1464786
47	0xbd006fdd	-0.03135668
48	0xbf3ff60d	-0.7498482
49	0x3e1ac955	0.15115865
50	0xbe5d6f75	-0.21624549
51	0x3e1d6da5	0.15373857
52	0xbe5e7531	-0.21724392
53	0x3e078a71	0.13236405
54	0x3e51f747	0.20504485
55	0xbe356a65	-0.17716368
56	0xbebd58ea	-0.369819
57	0xbe8b727e	-0.27235788
58	0xbeb2321d	-0.34803858
59	0xbf1a283f	-0.6021766
60	0xbebba683	-0.36650476
61	0xbe89b418	-0.26895213
62	0xbf0ccc61	-0.5499936
63	0xbd3514d5	-0.04420932
64	0xbf31d7fa	-0.6947018
65	0x3ed00c3f	0.40634343
66	0xbfa53c79	-1.290908
67	0xbd90730b	-0.07053193
68	0xbe53c0ba	-0.20678988
69	0x3eeb4491	0.4595075
70	0x3e6fd0ef	0.23419546
71	0xbe4c87a1	-0.19973613
72	0x3e9bb2b0	0.30409765
73	0xbf6a71b8	-0.9157977
74	0xbf001cc2	-0.5004388
75	0xbd53a1e0	-0.051668048
76	0xbef9c744	-0.4878484
77	0xbf361194	-0.7112057
78	0xbf9315a5	-1.149098
79	0x3cdaa628	0.026690558
80	0xbf034d66	-0.51289976
81	0x3edfe0a2	0.4372607
82	0xbfbace28	-1.4594164
83	0x3ea53ad2	0.3227144
84	0xbd5acce0	-0.05341804
85	0x3eb9ed15	0.36313692
86	0x3eb3eeb7	0.35143062
87	0xbeab1d87	-0.33420965
88	0xbe9e4b6c	-0.30916917
89	0xbf4e0814	-0.80481076
90	0xbe80e86a	-0.25177318
91	0xbd8e5383	-0.06949522
92	0xbeb044dd	-0.3442754
93	0xbf634046	-0.8876995
94	0xbf9b6549	-1.2140285
95	0xbe961bbd	-0.29318038
96	0x3d7cda17	0.061731424
97	0x3f095161	0.536398
98	0xbea03050	-0.3128686
99	0xbf5255c3	-0.8216211
100	0x3e22df85	0.15905578
101	0x3e11c7d8	0.1423639
102	0xbe4be1f5	-0.19910415
103	0x3eb803df	0.35940453
104	0xbe33297c	-0.17496294
105	0xc036b1b9	-2.8545973
106	0xc059982b	-3.3999126
107	0xbd9f7aa2	-0.07787062
108	0xbf749be7	-0.9555039
109	0x3ee1228c	0.4397167
110	0x3e2a00c4	0.16601855
111	0xbf1ce26a	-0.6128298
112	0xbfd576d1	-1.6676885
113	0xbf3b5c55	-0.7318776
114	0x3ee8a1ed	0.4543604
115	0xbeb41991	-0.35175756
116	0xbe045205	-0.12921913
117	0xbf0da170	-0.5532446
118	0xbe302e82	-0.17205241
119	0xc0555ab4	-3.333661
120	0x3e065e3d	0.13121887
121	0x3f23ba93	0.63956565
122	0xc073521f	-3.8018873
123	0xbe5e27b0	-0.21694827
124	0x3e8e01c2	0.27735716
125	0xb97e86ad	-0.00024273498
126	0x3e3edc4a	0.18638721
127	0x3f20a241	0.6274758
128	0x3d04e230	0.03244227
129	0xbe9c8392	-0.3056913
130	0xbfbc95f7	-1.4733266
131	0x3d8a61ba	0.06756921
132	0xbdc992c8	-0.098424494
133	0xbf61ef40	-0.8825569
134	0xbdf78800	-0.12086487
135	0x3e49176c	0.19637841
136	0x3f30ff07	0.6913914
137	0x3d923815	0.07139603
138	0x3fab0c7e	1.3363187
139	0xbe4637f7	-0.19357286
140	0xbeb64729	-0.35601166
141	0xbea243f1	-0.3169246
142	0xc033d753	-2.8100173
143	0xbef4918b	-0.4776729
144	0xbfa4e94b	-1.2883695
145	0x3e9c722e	0.30555862
146	0xbf280a95	-0.65641147
147	0x3f0432a1	0.51639754
148	0x3e3e2b90	0.18571305
149	0xbd8764aa	-0.06610997
150	0xbf8b8908	-1.0901194
151	0xbe395355	-0.18098195
152	0xbc72dfeb	-0.014823894
153	0x3f3a8cf1	0.7287131
154	0xbd0e8c52	-0.03480179
155	0x3e223667	0.15841065
156	0x3e999248	0.29994416
157	0xc0665fd1	-3.5995982
158	0xc04f2101	-3.2363894
159	0xbec5c2b1	-0.386251
160	0xc06845e1	-3.629265
161	0xbf748b6d	-0.95525247
162	0xbf14a5de	-0.58065593
163	0xbd8330da	-0.06405802
164	0xbce09630	-0.027415365
165	0x3e468568	0.19386828
166	0x3f3b12ef	0.73075765
167	0x3ee0b9b5	0.43891683
168	0xbe033057	-0.12811409
169	0xc090e769	-4.5282483
170	0x3f3cca82	0.737465
171	0xbe3d480f	-0.1848452
172	0xbf7fd9d4	-0.99941754
173	0xc0780944	-3.8755655
174	0xc0177a95	-2.3668568
175	0x3f34ec08	0.70672655
176	0xbf1116fc	-0.56675696
177	0xbfa1a0fa	-1.2627251
178	0x3ef0c0ef	0.47022197
179	0xbd7c324f	-0.061571416
180	0xbd6734b1	-0.056446735
181	0x3f2e2982	0.68032086
182	0x3ef2b1c5	0.47401252
183	0xbcec578a	-0.028850336
184	0xbf656658	-0.8960929
185	0xc0407b5c	-3.0075293
186	0xc082368f	-4.06916
187	0xbe7ee2b4	-0.24891168
188	0xc06bd254	-3.6847124
189	0xbf81b28c	-1.0132613
190	0xbf02b22d	-0.51053125
191	0x3e87abf5	0.2649838
192	0xbecd9805	-0.40155044
193	0xbfa42faf	-1.2827052
194	0xbecb5c02	-0.39718634
195	0xbf64f5d5	-0.8943761
196	0x3e17ac5c	0.14811844
197	0xbf4212ed	-0.7581013
198	0x3da9bc4d	0.08287869
199	0x3f0ac460	0.54205894
200	0x3f3caab9	0.73698
201	0xbf4f30c9	-0.80933815
202	0x3f4ebdca	0.80758345
203	0xbddce91b	-0.10786649
204	0xbf07b533	-0.53010863
205	0xbd56c60c	-0.052434966
206	0xbea0eba8	-0.3142979
207	0x3d065e36	0.03280469
208	0xc0731b13	-3.7985275
209	0xbef83748	-0.48479676
210	0xc058a547	-3.3850877
211	0x3eedea04	0.46467602
212	0xbe516116	-0.20447192
213	0x3ceb23ec	0.028703652
214	0xbee85c99	-0.45383146
215	0x3f02df4e	0.51121986
216	0x3f0b205b	0.54346246
217	0xbf522c78	-0.82099104
218	0x3ef8147a	0.48453122
219	0x3f0df694	0.55454373
220	0x3d890742	0.066908374
221	0xc062f607	-3.5462663
222	0xc00e6565	-2.2249386
223	0x3ec9b158	0.39393115
224	0xbf74a99c	-0.95571303
225	0xc00f50d7	-2.239309
226	0x3eb17184	0.34656918
227	0xbf223416	-0.63360727
228	0xbe2f6289	-0.17127432
229	0xbddda6db	-0.10822841
230	0xbf397123	-0.7243826
231	0x3e6df648	0.2323848
232	0x3e16b252	0.14716461
233	0xbf2dc625	-0.6788047
234	0xc0339a6d	-2.8063004
235	0xbe1b5f87	-0.1517316
236	0x3df8f115	0.12155358
237	0x3e55ed77	0.20891367
238	0x3ede03aa	0.4336217
239	0x3e429c0a	0.19004837
240	0xc05180de	-3.2734904
241	0xc02ecf8e	-2.7314181
242	0x3e8744c1	0.26419643
243	0xbdd0f48d	-0.10202894
244	0x3d757820	0.059929013
245	0xbeb10c13	-0.34579524
246	0xbf24f8c3	-0.6444208
247	0x3e4f128a	0.20221916
248	0x3f0395e2	0.5140058
249	0x3e032ee4	0.12810856
250	0x3f6f0987	0.9337391
251	0xbedf58ab	-0.43622336
252	0x3e80e296	0.2517287
253	0xbf8938b9	-1.0720435
254	0xbf1998ca	-0.5999876
255	0x3e5858cd	0.21127625

l3.bias f4 [47]
0	0xbe300f81	-0.17193414
1	0x3b9a7e53	0.004714766
2	0xbea324a7	-0.318639
3	0xbe92c8f7	-0.2866895
4	0x3df4f54e	0.11960851
5	0x3d1cb53e	0.038258784
6	0xbe0fa1b0	-0.14026523
7	0x3e2fb8ef	0.1716039
8	0xbdf3fc52	-0.11913361
9	0xbdf302d2	-0.11865772
10	0x3dd654bf	0.10465383
11	0x3dfcca0c	0.12343225
12	0x3df99a2e	0.121876106
13	0x3dbd5cc8	0.09246212
14	0x3c5048d1	0.012712673
15	0xbe1aa80f	-0.15103172
16	0x3e3d7849	0.18502916
17	0x3da1b4f8	0.07895845
18	0xbe992e23	-0.29918012
19	0xbd5c0d62	-0.0537237
20	0x3dfa41c3	0.12219574
21	0x3dfe2ff8	0.12411493
22	0xbe169444	-0.14704996
23	0x3e79be0c	0.24388903
24	0x3d7c7b2c	0.061640903
25	0x3e1dec4e	0.15422174
26	0xbe0cfae0	-0.13767576
27	0xbe8f9009	-0.28039578
28	0x3d6fdfce	0.058563046
29	0xbe8436ae	-0.25822967
30	0x3d8cfb80	0.06883907
31	0xbe5e6619	-0.21718635
32	0xbe1cba0a	-0.15305343
33	0x3e8994cc	0.26871336
34	0xbdec6b79	-0.11543936
35	0x3d9e1e2a	0.07720597
36	0x3df9cc1d	0.12197135
37	0xbdb7814b	-0.089602076
38	0x3e232265	0.15931089
39	0xbe699618	-0.22811162
40	0x3d9d0344	0.076666385
41	0xbd1dc985	-0.038522262
42	0xbbe1f1d0	-0.0068952814
43	0x3ebc94ab	0.36832175
44	0x3e632c54	0.22184879
45	0x3d3907de	0.04517352
46	0x3dcd4958	0.10023755
